models/best_lenet.pth (torch, 181282 bytes, 10 tensors)

conv1.weight f4 [6, 1, 5, 5]
00000000: 0c0f 5abd 3964 1f3e f08e aabd 9389 2b3e
00000010: 2e9d a5bd 18af ffbd a135 2e3e 7060 8b3d
00000020: 2556 053e 444e d0bd 429c 663e 7055 f03d
00000030: 1e9d 6f3e 0003 4a3d 806c abbd 464c e43d
00000040: 8bb8 29bd a35e 583e 6e37 2d3e 02aa 1f3e
00000050: dd29 e9bd 13d2 783d bb55 1d3d 46c5 49be
00000060: 6822 17be f6d5 813d a969 1cbe b8b2 cf3b
00000070: 05cf 143e 8188 50bc 9171 9dbd b0a1 9cbe
00000080: 2ccd 15be 32a2 4f3e eb37 063e 6a62 00be
00000090: 3d06 0cbd 37e1 84be c2d8 66bd 5cb5 523e
000000a0: 317b 6abd 9209 95be d979 eabd a9be 303e
000000b0: 370e 9a3e 35f7 92be 2fdf 7dbe 4c30 60bd
000000c0: c127 753e 52c5 983e 2750 c2bd b2c7 0cbe
000000d0: d73d a13c 5ffe f73b 247e 10bd 494e bb3d
000000e0: aab0 68be 09cf 8bbe f5e5 adbc 66d0 ea3d
000000f0: b244 a13c d704 893d be3f 9abb 4867 1d3e
00000100: e5cb ef3d 1ef8 7abd cc21 abbd 711a 813d
00000110: cb19 d4bc 520b 673e e3e8 833e 3448 8c3e
00000120: d733 663e 535e 933e bd6c ac3d 8dee e03d
00000130: 6721 0c3d 9772 083e a35f 25be c753 0fbd
00000140: 1a7a 553e 57a1 7e3d f3bf eb3d ea31 80be
00000150: c4aa 86be 45d0 b53c 32b6 3c3e c3ae 83be
00000160: 518a 8ebe e7a8 c4bd a28f 20be f20c 7d3d
00000170: 3887 5e3b 8978 f9bb 5346 7ebe d7d7 933d
00000180: f956 b53d 2d2c 923e 5b50 583e b50b 713e
00000190: ee61 c3be 8a7c b7be 91f9 dfbe db0a 95be
000001a0: e507 cbbe eec7 9cbe 3d65 19be 2b4b 8bbe
000001b0: 5d75 efbd 4746 9fbd fe4f 2b3e afcf 823e
000001c0: c549 603d abf4 973e 6c54 293e 4072 4d3e
000001d0: 2e43 763e 3d16 3d3e e45c 663d 4e45 92bd
000001e0: 04b1 413e c378 443e 0a41 d33d a6d1 4f3d
000001f0: f88a d43d ab02 523e 9ff4 7abd 601f 423e
00000200: 51ff e03d 8bff f53d 0b48 c53d c4b2 b23d
00000210: 967d dc3d b55c fc3d c099 66bd 18a8 00bd
00000220: 1e45 373e 5c34 f13d a0c0 313e b3cd c33d
00000230: 80e2 3bbd 10dc d43d cc50 e3bd 15b5 96bc
00000240: 55bf c5bd 935c 9fbe 5a24 a9bd e239 08be
00000250: 0fad 96bd 629e 163e
-0.053237006 0.15565576 -0.083280444 0.16751699 -0.0808662 -0.12484568 0.17012645 0.06805503
0.13021143 -0.10171178 0.22520545 0.11735046 0.23399779 0.049319267 -0.08370304 0.111473605
-0.04143576 0.21129851 0.16915676 0.15592197 -0.11384938 0.060747217 0.038411837 -0.1970416
-0.14759219 0.06339638 -0.15274681 0.0063384436 0.14532097 -0.012727858 -0.07687677 -0.30592108
-0.14629048 0.20276716 0.13107269 -0.12537542 -0.034185637 -0.25953075 -0.05635906 0.20576996
-0.05724639 -0.29108864 -0.11449022 0.17260231 0.3008897 -0.2870423 -0.24792169 -0.05473356
0.23940946 0.29838043 -0.09487944 -0.13748053 0.019682808 0.007568165 -0.035276547 0.09145791
-0.22723642 -0.27306393 -0.021227816 0.1146553 0.019686077 0.06690376 -0.0047073057 0.1537143
0.11708812 -0.06127178 -0.083560556 0.063038714 -0.025891205 0.22562912 0.25763616 0.27398837
0.22480713 0.287829 0.08419178 0.10983 0.034211542 0.13324963 -0.16149764 -0.034992006
0.2084736 0.062165584 0.11511221 -0.2503808 -0.2630216 0.022194037 0.18428877 -0.2571927
-0.27839902 -0.09602528 -0.15679792 0.061779924 0.0033955108 -0.007613246 -0.24831514 0.072189026
0.08854479 0.28549328 0.21124403 0.23539622 -0.38160652 -0.35837203 -0.43745092 -0.29109845
-0.3965446 -0.30621284 -0.14980026 -0.27205786 -0.11692307 -0.07777076 0.16729733 0.25549075
0.054757852 0.29678854 0.1653611 0.20063114 0.24049065 0.18465514 0.05624093 -0.07142125
0.18915182 0.19186692 0.103151396 0.050737046 0.10378069 0.2050883 -0.061268445 0.18957281
0.10986198 0.120116316 0.09632882 0.08725503 0.10766141 0.1232237 -0.05629897 -0.031410307
0.1789746 0.11777565 0.17358637 0.095607184 -0.045870304 0.10393536 -0.11099395 -0.018396894
-0.09655634 -0.31125316 -0.08258887 -0.1330333 -0.07357227 0.14708856

conv1.bias f4 [6]
00000000: 2dab 913e 1446 2b3e 600b b93d a3b6 22bd
00000010: a878 683c 159f ac3d
0.2845091 0.16725951 0.09035373 -0.039724957 0.014188923 0.0842878

conv2.weight f4 [16, 6, 5, 5]
00000000: 5fe9 7fbd a350 573d 2f20 903c defd 95bc
00000010: 3051 bd3d e780 aa3d 152a 543d 8c7d 35bd
00000020: df02 403d 3b68 013d b313 803d df87 8d3c
00000030: 1346 dbbb b57c b93d 4d77 8dbc 8a3d 4bbd
00000040: 6045 ba3b 5304 113c b011 613c 517e 663d
00000050: c14d 263d 8b3f 8a3d 47e9 4f3d 6654 babd
00000060: 99e1 5cbd f7cf 02bc ef40 203d f6cb 9f3c
00000070: 3753 8cbd b149 51bd 6cce aa3c de26 92bd
00000080: 1288 c8bd e12e 00bd 319e 4cbe 71c2 6cbd
00000090: 0071 34bd 4044 3cbe dc03 f8bd 679c bfbd
000000a0: 3b16 14bd d52e f3bd 6887 31be 1f78 34be
000000b0: b91e 85bd ed7c 86bd 3aa6 1abe 36b9 10be
000000c0: f4c3 41be 9e48 30be b7f3 203d 5fbf c13c
000000d0: 92ff aa3d 66e6 753d 2688 063e 712c b13c
000000e0: 1afb bd3d e197 af3d 5b75 073e 593c 703c
000000f0: da2d b3bc 3f8a b13d 7ada b83d db61 b63d
00000100: caf0 ce3c caa3 86bc 6b7a be3b 3fde 213d
00000110: b2dd 8d3d ba7e 933b e6f5 da3c 64c3 ebbd
00000120: 1e1c a1bd 3d7c b23c e31d 67bd c4ef 003e
00000130: 033c 063e e0a2 23bd ce04 253c a5f4 133e
00000140: 39dd e93d 484f d13d de79 bc3d 7004 d53d
00000150: f0b5 b53d 72b5 723d 2330 573d 3820 443d
00000160: 5f3c b03d c6d5 cc3d 6719 3dbd d326 963d
00000170: ceb4 2bbd def2 123d 534c 333d 213d b3bd
00000180: 7e86 dcbc 37ee 8fbc 6342 9dbd a3c7 7dbd
00000190: 8798 e03c 2a4d 6c3d 4c47 7fbd 71b8 383d
000001a0: 7187 c93d dab1 a6bd 67b6 1e3d 9e01 813d
000001b0: 9174 803d 1f02 263e 6894 32bd 44ae f13d
000001c0: d341 dd3d 4b23 493e 0592 ef3d b28b f4bd
000001d0: bd6e 003d f8e2 ba3d ec7b 423e 22c4 4f3e
000001e0: fe1e b63d 54dd bf3d 980a 723e 0ae0 893e
000001f0: 4b7c 123e 70ca a7bd 7fa9 d0bd b755 3e3c
00000200: 588f 73bc 1cea ad3d 7c28 473c 6e6e b4bb
00000210: 14fd 87bd 0eb9 bdbc 8396 0b3e 32e4 d03d
00000220: 7bbf 9c3d 467b 6e3c 9390 ec3d cc8f df3d
00000230: 80b2 e2bc 72d4 ef3d 433b c63d 579f dbbc
00000240: 40d2 003e 3a0c 91bc e899 a3bc 4ac9 c03d
00000250: df00 6abd 5051 283d 566b 3f3d 4453 94bc
00000260: 1475 023e e2a4 f63d 25ea fabb 2eb5 2ebd
00000270: 179d 533d 164d 893d cc0e 2f3c d0ef 02be
00000280: 0f17 cc3d bce5 bd3c 4837 a73d aaf0 b93d
00000290: 7353 65bd a5fe d53d 7bfd e73d aa03 a83d
000002a0: 8332 a5bd 801a 03be 05c4 66bd be8a 49bd
000002b0: dbf8 2b3c 401c f7bd d2a3 363d 56c2 003e
000002c0: 704f 663e 33e4 803e 59ad 343d cfc8 84bc
000002d0: e85e 243e dd42 733e 097d 2b3e 7ad4 0a3d
000002e0: a46d a83a 93dc 983d 88cc 5d3e 68d9 8d3d
000002f0: 197f 6fbd 6143 153c f4d4 da3d cfc6 933d
00000300: 3e35 6bbd 3e8f b3bd ad7b 003d 4043 d53d
00000310: d33c de3d a698 0bbd 0a09 d4bb 1cbb 683d
00000320: 844c 873c dc97 4e3d 222e 29bc a0cd 8f3c
00000330: d4e5 6ebe 5874 d73c ead8 6f3d 1db4 f53c
00000340: cbd1 24be f207 34be 1bd1 853d 8f66 e83d
00000350: 1053 28bd 5f5d 00be c500 9cbd d222 5a3d
00000360: 3c14 833c ddc1 6bbd c61b 71bc 5bd8 433d
00000370: 0aa2 38bd 4023 ccbd 0edf 93bd 1c7e 063d
00000380: d758 e53d 3eff 4ebd b9bc 433c f376 3d3d
00000390: 678e e33c 8c44 3fbd 16e6 fabc 970f adbd
000003a0: 08ac 34bb 14ed 303e a22f 3e3e 8670 91bd
000003b0: 06ae 303d 7905 4b3e f09a 803e 4008 c43d
000003c0: 1d9d 3abd 706d 5c3d 3b37 703e d894 263e
000003d0: 3011 b4bd cd1d 0bbd 7be2 f93d 1c74 af3d
000003e0: 045d bb3c 575f 2fbd e5ce 99bd ae2d 9bbd
000003f0: 5a58 22bd a604 cbbd 9e86 88bc 4026 85bd
-0.06247842 0.052567136 0.017593471 -0.01830953 0.09244001 0.083253674 0.051797945 -0.044309184
0.046877738 0.031593543 0.06253757 0.017276702 -0.006691703 0.09056989 -0.017268801 -0.049619235
0.0056845397 0.008851129 0.013737127 0.05627281 0.040601496 0.06750401 0.05075958 -0.09098129
-0.053926084 -0.007984153 0.039124426 0.019506436 -0.068518095 -0.05109567 0.020850383 -0.071363196
-0.09791578 -0.031294707 -0.1998222 -0.05780262 -0.044053078 -0.1838541 -0.12110111 -0.09356003
-0.036154013 -0.11874167 -0.1733681 -0.17623948 -0.065000005 -0.065667965 -0.15102473 -0.14133152
-0.18922406 -0.17215201 0.039294925 0.023650823 0.083495274 0.06003418 0.13137874 0.021627637
0.092764094 0.085738905 0.13228361 0.0146628255 -0.02187245 0.086689465 0.09026046 0.08905383
0.025261302 -0.016435523 0.005812933 0.03951859 0.06927051 0.004501191 0.026728582 -0.11511877
-0.07866691 0.021787757 -0.056424987 0.12591463 0.1310883 -0.03995025 0.010071946 0.14448793
0.11419148 0.102202 0.09202932 0.10401237 0.088725924 0.05925507 0.05253614 0.04788229
0.08605265 0.100017115 -0.046166804 0.07331624 -0.041920476 0.035876147 0.04377396 -0.08751894
-0.0269196 -0.017569644 -0.07678678 -0.061957967 0.02741648 0.057690777 -0.062323853 0.045097772
0.098402865 -0.08139391 0.03874817 0.062991366 0.06272233 0.16211747 -0.043598562 0.11800817
0.108035706 0.1964237 0.11697773 -0.11940707 0.03135561 0.09125322 0.18992585 0.20289662
0.0889263 0.09368387 0.23636854 0.2692874 0.14305227 -0.08192909 -0.10188579 0.011617116
-0.014865719 0.084919184 0.012155648 -0.0055063283 -0.06640068 -0.02315953 0.13631634 0.10199775
0.076537095 0.014555758 0.11551013 0.10916099 -0.027673006 0.117104426 0.09679272 -0.026809378
0.12580204 -0.017706025 -0.01997085 0.09413393 -0.057129737 0.04109317 0.046733223 -0.01810611
0.12739974 0.12043168 -0.0076573067 -0.042653255 0.051663484 0.06704156 0.01068468 -0.12786794
0.099653356 0.023180835 0.08164841 0.09079106 -0.055987787 0.1044896 0.113276444 0.08203824
-0.08066275 -0.12803078 -0.056339283 -0.04920458 0.0104963435 -0.12065935 0.044589825 0.12574133
0.2249124 0.25174102 0.04411063 -0.016209034 0.16051829 0.23755975 0.16746916 0.03389404
0.0012850058 0.07463946 0.21660054 0.069262326 -0.05847082 0.009110303 0.10685149 0.07215654
-0.057423823 -0.08767556 0.031367946 0.104132175 0.10851445 -0.034081124 -0.006470804 0.056819066
0.016515978 0.050437793 -0.01032594 0.017554104 -0.2332986 0.026300594 0.058556475 0.029993111
-0.16095655 -0.17581156 0.06534024 0.113476865 -0.04109484 -0.12535618 -0.07617334 0.053255863
0.01600086 -0.05755793 -0.014716094 0.047813755 -0.045076407 -0.09967661 -0.07220279 0.03283511
0.111985855 -0.050536387 0.01194685 0.046256017 0.027777864 -0.04669623 -0.030627292 -0.08450239
-0.002756836 0.17277938 0.18572858 -0.0710154 0.04313471 0.19826306 0.25118208 0.09571886
-0.04555999 0.053815305 0.23458569 0.16267717 -0.08792341 -0.033963967 0.12201401 0.08567068
0.022871502 -0.042815533 -0.07510165 -0.07577072 -0.03963504 -0.09912996 -0.016665753 -0.06501436

conv2.bias f4 [16]
00000000: 2c60 2a3d 51db db3d 2d91 3d3d 4335 b83b
00000010: 7625 e53d 25a1 56bd bf1d 9abb 0af6 1ebd
00000020: b8f7 ce3d c3a2 c33b 12c6 8a3d ca25 963d
00000030: d168 3f3d 85cb b53d e068 4b3d bc56 af3d
0.041595623 0.10735191 0.04628103 0.0056215837 0.11188786 -0.052399773 -0.004703253 -0.03880886
0.10105842 0.0059703304 0.0677606 0.073314264 0.04673082 0.08876709 0.049660563 0.08561465

fc1.weight f4 [120, 256]
00000000: 2c1c dc3b b246 c2bc 687e 02bd 1f5e 333c
00000010: 6030 09bd 953a 4fbd 7f9d c0bd 8957 0d3d
00000020: a607 693c 2e33 c4bd 906f bf3c 40ae 28bd
00000030: 274f 4ebd 6960 aabc ebe3 10bc 840e 803d
00000040: d675 74bd c049 983b 1e69 b9bb ee25 243d
00000050: 5567 87bc 534a f83c b163 393c 8129 e33d
00000060: 8dae 073d 6e38 073e ea0f d9bb ae2b 4d3c
00000070: b685 1e3d 2ecc 9e3d 2745 babc 1292 273c
00000080: ba57 62bd 1a1e c9bd 99fb c6bd b1b6 81bc
00000090: e829 30bd d316 733b a501 373b 093b 17be
000000a0: 3846 bf3b a1d7 6fbd 2925 11bd fdad 2abd
000000b0: 3f46 ddbd 5152 7abd 848c 8abd c08a 953d
000000c0: 1b68 323b a34f 9a3d d1e0 0d3d 063d c73d
000000d0: 84d1 0c3c 7ee3 aebd 118d d3bd 07a4 9fbd
000000e0: b61f 00bd 3b10 113d b70f 80bd 8280 593d
000000f0: 31e8 dfbc 0695 8cbb ed28 2f3d 9b5f 26bc
00000100: 1f6b 76ba ebea 53bb 04ac 293c 33db ebbc
00000110: fcf1 f9bc 5cf1 313d 5e64 fb3d f6cd 9d3c
00000120: aa21 52bd 0eb2 413d bf64 4dbd 115e c3bb
00000130: 9d6e 8abd f16c 2bbc 8c7e 8bbb d97c eabb
00000140: 73e6 4abc 6c4f 243d 0e32 4e3d 5854 a13c
00000150: c766 a73c 8c2a c63d f7d1 eebb f3a4 d63d
00000160: d731 b33c 962f 3e3d bebb 173c 363c bb3d
00000170: 9383 983c cfc0 3a3d 4287 1ebd 0e91 adbc
00000180: b8c0 513d d6bf bb3c beea 593d 10bb 823b
00000190: 4d88 b43d c697 503c 5e88 423d 3362 c6bc
000001a0: b080 603d 69b7 f3bc 649e 343d 8167 4f3d
000001b0: 1dc8 d03d eef9 3ebd d6eb a0bd bd2d b6bc
000001c0: 3b5c 72bc 54b4 dd3d a31f d73d 2e4f 013d
000001d0: 152e 1ebc 1825 90bc c912 12bd 2b08 dd3c
000001e0: 7340 91ba 65fc 1ebd 6a0a 02be 4dd6 c83b
000001f0: 0925 c93c 9aae 3bbd 3d0a 36bd b196 cdbc
00000200: c5e2 313d 3d78 ab3d 098c 70bd f67e 33be
00000210: 58c7 953c c011 073d 387a b33d fb7a dfba
00000220: 8f98 5dbd 45a2 cabd 72af 8c3d ad27 a53d
00000230: a4e2 a8bc 79c3 0fbd 36fc 8ebd 128e 8f3d
00000240: d0d5 0d3d 19de 913c f53b d93c 0f69 4dbd
00000250: d910 b6bc b676 713b 4db9 b3bc 3ac2 083d
00000260: 7964 183d f62b 95bd 74a9 8cbd 3348 cabc
00000270: 242d 2dbd eb55 2dbd 3fca aabd 2207 37bc
00000280: f629 8cbd 3e36 69bc fb8b 3c3d 2a41 c53d
00000290: ff59 57bd 273e 123d 138e 87bd 1db5 88bd
000002a0: 97c1 663c 2442 04bd e322 48bc 6ef7 88bd
000002b0: 0dc7 acbc b3e5 03bd 5b74 163d 91a3 efbc
000002c0: b9d9 0f3d 1187 40bd 38f6 753d 9d85 ac3d
000002d0: f6bd 08bd 83cd fe3c a38c 92bd a1e2 cdbd
000002e0: f7d8 47bd 85bd f0bd 139a bfbd cdf9 823c
000002f0: c146 c33b e08d 1d3d db52 a0bc 9ee3 11bd
00000300: 6746 3cbc 1643 ab3c f398 5a3d c2e2 2d3d
00000310: e6c7 8f3c ca17 e4bb 4eb8 e8bc d496 fc3c
00000320: 81b2 3cbd b2d6 11bd f8ac 9dbd 022c 683d
00000330: 69a0 563b d258 013d 405a dabc 2c5d f9bb
00000340: be71 6c3d 5185 883d 2095 9ebc ea1e c93d
00000350: 8664 15bd d494 f1bd 4980 86bd 7f8b 103d
00000360: 5c8b 65bc a91b 7d3c a489 69bd 971c ee3b
00000370: 6279 d03c 3cd4 ffbc 6fb7 0e3d d099 8fb9
00000380: f870 873d f675 663c 1e4f a3bc 1d95 903a
00000390: ba5f a03c 2ffa 3abd edfb 8e3c bef7 a53a
000003a0: f3d7 5fbd 81d3 31bd 5e85 493a 8f44 3b3d
000003b0: 6060 6a3d 6266 813d 2079 82bd 2846 6bbd
000003c0: fb3c 1fbd 0f07 10bc 8d4e 853b 7efc 6abc
000003d0: c099 67bd ea68 be3d cda0 943d d180 063e
000003e0: 4cbd 363d 6e29 083d 5ca6 b9bd acf2 633c
000003f0: 7cb9 803d 59da 373c 33bb c23c ab9c 2c3b
0.0067172255 -0.02371535 -0.03185883 0.010947733 -0.0334934 -0.050592978 -0.0940504 0.03450731
0.014223015 -0.09580074 0.023368627 -0.041181803 -0.050368454 -0.020797925 -0.008843402 0.06252769
-0.05968269 0.0046474636 -0.005658283 0.040075235 -0.016528765 0.030308878 0.011315272 0.110919006
0.03312545 0.1320512 -0.0066242116 0.012522621 0.038701735 0.07753788 -0.022738053 0.010227697
-0.055259444 -0.098201945 -0.09715957 -0.015834184 -0.043008715 0.0037092462 0.0027924564 -0.14768614
0.005837228 -0.05855525 -0.03543583 -0.041669834 -0.10804414 -0.06111366 -0.067650825 0.07301855
0.0027222696 0.07534721 0.03463823 0.09728436 0.008594874 -0.085394844 -0.10329641 -0.077949576
-0.031280242 0.03541587 -0.06252997 0.05310107 -0.027332397 -0.004290226 0.04276364 -0.01015463
-0.00094001176 -0.0032336067 0.010355953 -0.028791046 -0.030510895 0.04344307 0.12275003 0.019263249
-0.051301636 0.047288947 -0.050144907 -0.0059621413 -0.06759379 -0.010462985 -0.004257029 -0.0071559963
-0.012384045 0.040114805 0.050340705 0.019693539 0.02043475 0.09676084 -0.0072882134 0.1048068
0.021874351 0.0464321 0.00926107 0.09142344 0.018617427 0.045594033 -0.03870321 -0.021187332
0.05120918 0.022918623 0.053202383 0.0039895847 0.0881506 0.012731498 0.04749333 -0.024216747
0.054810226 -0.029750543 0.044096366 0.05063582 0.101944186 -0.04662507 -0.07857482 -0.022238607
-0.014792497 0.108254105 0.10504081 0.031569652 -0.0096545415 -0.017595813 -0.035662446 0.026981434
-0.001108183 -0.03881492 -0.12699285 0.0061290623 0.024553793 -0.04582081 -0.044443358 -0.02509627
0.043429155 0.08372543 -0.058727298 -0.175289 0.018283531 0.032975912 0.08763546 -0.0017050201
-0.05410057 -0.09894232 0.06869401 0.08064208 -0.020615883 -0.035098527 -0.06981699 0.0700952
0.034627736 0.0178061 0.026517848 -0.05014902 -0.02222483 0.003684444 -0.021938944 0.033388354
0.037205193 -0.072837755 -0.06868258 -0.02469263 -0.042279378 -0.042318266 -0.08339357 -0.011171134
-0.06843941 -0.014234124 0.046031933 0.0963157 -0.05257606 0.035703804 -0.066188954 -0.066751696
0.014084241 -0.03228964 -0.012215349 -0.066878185 -0.021091009 -0.03220148 0.03673206 -0.0292528
0.035119746 -0.04700381 0.060049266 0.08423922 -0.033384286 0.031103855 -0.071557306 -0.10052992
-0.0487909 -0.11754898 -0.09355559 0.015988255 0.0059593623 0.03846538 -0.019570759 -0.035617463
-0.011491395 0.020906013 0.05336852 0.04245258 0.017551374 -0.0069608437 -0.028408196 0.03083364
-0.046068672 -0.03560514 -0.07699007 0.056682594 0.003274942 0.031578846 -0.026654363 -0.007609984
0.05772566 0.06666053 -0.019358218 0.098203495 -0.03647282 -0.11795965 -0.06567437 0.035289284
-0.014010277 0.015448489 -0.05701603 0.007266592 0.025448505 -0.03122913 0.034842905 -0.00027389685
0.06613344 0.01406621 -0.019935187 0.0011030767 0.019576896 -0.04564875 0.017454112 0.0012662334
-0.054649305 -0.043414596 0.0007687415 0.04571968 0.057220817 0.06318356 -0.06370759 -0.057439953
-0.038876515 -0.008790745 0.004068202 -0.014342425 -0.05654311 0.092973545 0.07257233 0.13135077
0.04461412 0.033242635 -0.09064934 0.013912838 0.06285378 0.011221492 0.023770904 0.0026338499

fc1.bias f4 [120]
00000000: d9e4 5a3d 5dcd 583d 9312 d0bc 169d 1d3d
00000010: 922c a53c f206 02bd cacc 873d 3191 7fba
00000020: d738 37bd 092f ffbc 9dda 573d 663b 253d
00000030: e786 9e3c bac6 883d bb48 123d d396 893d
00000040: 65a6 9e3d 7fed 4a3d 4289 3f3d 4bc6 29bd
00000050: 174c 43bc af15 2dbd 22c2 ad3d 66fb eabc
00000060: 32ba 4a3d 58d6 0b3d 8dcf 9c3d 36b7 0e3d
00000070: ee62 583a 73ed 2ebd b52c 633c 04c5 193d
00000080: 5242 7f3d 88c6 ff3c 6f7f 193d 7913 4e3d
00000090: d286 6b3d 9d98 48bd d53b 633d d001 0bbd
000000a0: 71ef 633d ca4b 98bc d1bf 8c3d 3951 273d
000000b0: ec56 85bc fdef 1c3b 54a6 193d 4765 cdbc
000000c0: 9469 5fbd 9186 003d dffb 29bd 3f88 aabc
000000d0: dc1a 9dbc e0c5 d03c 8abf 88bd 4b32 09bd
000000e0: 540f 023d a2e1 1f3d 81fa c23d 812b 09bb
000000f0: d6c4 8f3d fb1d 8e3c a0c4 bd3c 7803 92bc
00000100: d9db 653d 7928 b7bc bddd 283d 471f debc
00000110: 751e ab3d 984a d83b 53c1 1d3d d407 dabc
00000120: c8c1 48bd bac9 723d 80f7 573d cfbe d8bb
00000130: 3541 473a b934 b6bb be33 eb3a 96ec 4e3d
00000140: ebab 27bd ec9d 35bd 88d7 27bd 9012 6ebd
00000150: 60e7 213d b6ac 903d ab30 bfbc 8bfa c2bc
00000160: d11a 2ebd fd44 00bc c6da 89bc 81bf cfbc
00000170: 78fc aabc a60d 3a3d 76e6 1d3c 7e06 423d
00000180: 42c7 47bb ac2c 563c e771 3abd b01c 843c
00000190: 306f 383d 8ac7 043d 9f93 7dbd 2dca cd3c
000001a0: 4605 69bd 8681 f1bc 726d 343d b29f e2bb
000001b0: 57a1 913d 0d0e 6fbd 5492 813d d58c 223d
000001c0: 3a27 aabc bc7f 16bd ddde 8cbd 7867 44bd
000001d0: 1cdf 56bd b1cf 0d3d e9e8 bc3c 775e 0ebd
0.053440902 0.052930225 -0.025399482 0.038479887 0.020162854 -0.031744905 0.06630857 -0.0009749113
-0.04473194 -0.031150358 0.05269872 0.04033985 0.019351436 0.06678529 0.035713892 0.067182206
0.07746581 0.0495429 0.04676176 -0.041448873 -0.011919997 -0.042257007 0.084842935 -0.02868433
0.049493976 0.03413996 0.07656775 0.034842692 0.0008254488 -0.042706918 0.013865639 0.037541404
0.062319107 0.031222597 0.037475046 0.05031154 0.05750162 -0.04897367 0.055476982 -0.033937275
0.05564827 -0.018590827 0.068725236 0.040848944 -0.0162768 0.0023946755 0.03751214 -0.025072707
-0.054544047 0.031378333 -0.04149997 -0.02081692 -0.019177847 0.02548498 -0.06677158 -0.03349523
0.0317529 0.03903354 0.09520436 -0.0020930471 0.07019965 0.01734828 0.023165047 -0.01782392
0.056117866 -0.022358166 0.04122709 -0.027114524 0.083554186 0.006600689 0.038514446 -0.02661506
-0.04901293 0.059274413 0.05272627 -0.006614543 0.0007600964 -0.0055604842 0.0017944498 0.050518595
-0.040935438 -0.04434006 -0.04097703 -0.05812317 0.039527297 0.07064192 -0.023338636 -0.023801109
-0.042506043 -0.007828948 -0.016827952 -0.02535987 -0.02087234 0.045423172 0.009637466 0.047369473
-0.0030483757 0.013072174 -0.045518782 0.01612696 0.04502791 0.032416858 -0.06190836 0.025120819
-0.056889795 -0.029480707 0.044049688 -0.00691601 0.07110851 -0.05836301 0.06326738 0.03968509
-0.020770658 -0.03674291 -0.06878445 -0.047950238 -0.052458867 0.034621898 0.023060279 -0.034758057

fc2.weight f4 [84, 120]
00000000: fa5f f9bd 9771 44bb b64d a03c 501e 27bd
00000010: 2f0b 6ebc 22c5 d13c 4880 46bd 06cb 4bbb
00000020: 0080 8fbc 93b0 cebd 333d f3bc 09e4 03be
00000030: c49e 863d c46b c7bd 4432 353d e376 28bd
00000040: e678 813c 6336 043e c439 03be 4f1c 803d
00000050: 57f7 b03d c05d 113c 94cf ef3c f7b6 1a3d
00000060: a1b3 ac3d 8e34 8fbd 36b4 9dbc 673e c03d
00000070: e837 8e3d 2e4a fc3c 7887 2ebd 274d ddbc
00000080: 9d5c d23d 833d 18bb 4653 e6bd a857 8bbd
00000090: 3ddc 8c3d 3544 88bc a74a 853d 7760 f23b
000000a0: a83f fb3d 6515 f83d 0a08 80bd 1ff2 f5bd
000000b0: 7fca 86bd 7995 7a3d 58b4 0bbd 98a9 b23c
000000c0: d518 67bc 0d15 db3d 03a4 01bd 34eb c83d
000000d0: 9d18 16be 4674 05bd a56e 85bc 2162 5fbd
000000e0: b203 d23d d1b0 d2bc e162 0fbd 290d 693d
000000f0: 591c 573c e37f dfbd e007 cb3c 558a 853d
00000100: 1b44 52bd b1d3 0dbe b497 e73c b273 f73d
00000110: 8c02 553d 9557 ae3c a0ae 95bd 3f29 af3c
00000120: 1a6f 923d 7b3e 903d e48d 05be 22de 053d
00000130: 2716 3e3d 2aca d33d 6a7a 5dbd a3f8 06be
00000140: 80a3 f23c a6db 66bd f82a 5d3d 0b9e 1bbc
00000150: 2db4 43bc 6ff7 073e 9854 213d 43d6 a0bd
00000160: 3ea8 b03d e7a5 873d e819 02be 1f50 b6bd
00000170: a476 e8ba 866d babd 2581 87bd a859 a03d
00000180: 3658 fcbd e952 af3d 4bd2 43bd d56a 06bd
00000190: 5aae 02bc 7f28 5b3d 5a67 363d cbf0 953d
000001a0: 3b68 8cbd 5754 783d f438 ad3d daf0 97bd
000001b0: 01c4 94bd d590 4fbd fd16 9cbd 0296 433c
000001c0: af8d babd 29ed 7d3d e0dc 81bd b6e6 40bd
000001d0: 88bf ba3c ac0b 13bd 147b e9bd e1c6 42bb
000001e0: 532b 4c3c 7e2d 893d b08b 543d 4da8 c1bd
000001f0: 5679 63bd 8440 cabd b135 92bd 4d67 863c
00000200: 2814 78bd 42c4 d63c b826 873d 09c7 ea3c
00000210: f441 7c3d 0f5b b9bc 6efc b5bd cb73 a7bd
00000220: caec fb3b a65d e1bc 937c 553d 982f 513d
00000230: 3d84 9ebd 6040 98bd 806c 8dbd e482 dc3c
00000240: 43a0 363c 613e a3bd 782a 18bd 9857 65bd
00000250: 3bca 5a3d c30c 86bd fddd 9abd 4201 8f3d
00000260: e871 41bc e881 833d 49f6 5238 bda3 45bd
00000270: 1d05 cfbd 45be a7bd b3cb 79bd d5f8 403c
00000280: 725d 36bc 5ca6 a2bd f36a ba3c 41ab 81bd
00000290: 04b2 9a3d f95f 9ebc 85b2 9abd b569 9ebd
000002a0: 861a 97bd 1b13 2dbd c0b9 013b 9839 bc3d
000002b0: aa44 8c3c a350 9b3d 2875 87bc c232 9b3d
000002c0: 56b0 5d3d 4dc5 273d a564 07bd 355b 04bd
000002d0: bdeb 15bd e4f5 cdbb b888 49bc e0f2 bdbd
000002e0: 4b7a 75bd 5cc5 7e3d 68aa 21bd 8f32 6e3d
000002f0: 6953 bbbb 20bc 5cbd d039 953d fb7b 2e3d
00000300: 58b6 87bc 7a56 6d3d 5c6b 9abd ec71 053d
00000310: 8bea 2e3d 01f5 8bbd 0287 333d aa7c 803b
00000320: 3801 64bd 26e6 e7bb 312c a8bd b0c3 25bd
00000330: e838 2e3d b339 8d3c 3d85 9ebd 0dc2 1abd
00000340: 2049 643c 6058 f1bd 7dee 8bbd b3eb 533d
00000350: 8bcf 40bd 5c92 5b3d c3dd a2bd 0ed8 82bd
00000360: dc04 773d 9fc5 1b3c 4028 b73a cc29 853d
00000370: 1af9 473a 8207 07bd 1018 fb3c 9603 763d
00000380: 22fc a9bd ea83 b2bd 007b a139 0641 443d
00000390: 9332 873d b058 48bc 0d90 45bd df12 44bd
000003a0: 9eda b2bd f956 ebbc d434 7e3c 0659 b3bd
000003b0: c11d 86bd 6a7a 1ebd bfd6 62bd 2426 d0bd
000003c0: 13e4 9cbd 6db2 62bd bd41 a13c e86c a0bc
000003d0: cce1 5e3d c9dc e1bc 82a0 863c d13c b1bd
000003e0: 647b 373d 6f1f 7f3d 6044 86bc 5a09 aebc
000003f0: a539 c0bd 3874 a93c f4e5 483d e27c aebd
-0.12176509 -0.0029974931 0.019568305 -0.040800393 -0.014529034 0.025606696 -0.048462182 -0.0031096353
-0.01751709 -0.100922726 -0.029692268 -0.12879957 0.06573251 -0.097373515 0.04423739 -0.041129004
0.01580472 0.12911372 -0.12815005 0.062553994 0.08640926 0.008872449 0.029273786 0.037772145
0.08432699 -0.06992446 -0.01925097 0.09386902 0.06944257 0.03079709 -0.04260966 -0.027014328
0.10271571 -0.0023230023 -0.11246352 -0.068038285 0.068779446 -0.016634086 0.065083794 0.0073967534
0.12268001 0.12113456 -0.06251533 -0.120090716 -0.06581592 0.061177704 -0.034107536 0.021809384
-0.0141050415 0.106973745 -0.031650554 0.098104864 -0.14657827 -0.03258159 -0.016288111 -0.054536942
0.10254611 -0.025719078 -0.035006408 0.056897316 0.013129317 -0.10913064 0.024784029 0.06520525
-0.05133448 -0.13850285 0.02827058 0.12082614 0.052004382 0.021281997 -0.07308698 0.021381972
0.07150097 0.07043167 -0.13042408 0.032682545 0.046407845 0.10341294 -0.05407182 -0.13180785
0.029618979 -0.056361817 0.053996056 -0.00949813 -0.011944813 0.13277982 0.039387316 -0.07853367
0.0862584 0.0662344 -0.12705195 -0.08902001 -0.0017735553 -0.09102921 -0.06616429 0.078296006
-0.123215124 0.08560736 -0.047807973 -0.032816727 -0.007976139 0.053505417 0.044532157 0.07321318
-0.06855818 0.060627308 0.084581286 -0.07418986 -0.07263947 -0.050675232 -0.07621572 0.01193762
-0.09109055 0.06199375 -0.06340957 -0.047095023 0.022796407 -0.035899803 -0.114004284 -0.0029720592
0.012461501 0.0669813 0.05189103 -0.09455929 -0.055535637 -0.09875587 -0.07139147 0.01640668
-0.060566097 0.02621663 0.06599182 0.02865936 0.061586335 -0.022626428 -0.08886038 -0.08176383
0.0076881396 -0.027510475 0.052120756 0.05107078 -0.07740066 -0.074341536 -0.0690546 0.026917882
0.011146608 -0.07970882 -0.037149876 -0.05599174 0.05341552 -0.06545403 -0.07561872 0.06982662
-0.0118069425 0.06421262 5.0297273e-05 -0.048251856 -0.10108397 -0.08190588 -0.06098528 0.011778076
-0.011130678 -0.07941887 0.022756075 -0.06331492 0.07553485 -0.019332873 -0.07553581 -0.07735006
-0.07378106 -0.04225455 0.0019794554 0.09190673 0.017122585 0.075837396 -0.016535357 0.07578041
0.054123245 0.040959645 -0.033054966 -0.032313544 -0.03660177 -0.006285416 -0.012300663 -0.0927484
-0.05993108 0.062199935 -0.039469153 0.058153685 -0.0057167304 -0.053890347 0.072864175 0.042598706
-0.01656644 0.0579438 -0.075400084 0.032579347 0.042704146 -0.0683384 0.043829925 0.003921111
-0.055665225 -0.0070769964 -0.08211554 -0.040469825 0.04253474 0.017239427 -0.07740257 -0.037782717
0.01393345 -0.11784434 -0.068325974 0.051738452 -0.04707293 0.053606376 -0.07952454 -0.063888654
0.06030737 0.009507566 0.0013973787 0.06502113 0.00076283666 -0.032966144 0.030651122 0.060062014
-0.08300044 -0.08716567 0.00030799955 0.047913574 0.06601443 -0.012228176 -0.04823308 -0.04786956
-0.08733104 -0.028727995 0.015515525 -0.08757214 -0.06548644 -0.038690962 -0.05538058 -0.10163525
-0.07660689 -0.05534594 0.019684667 -0.01958318 0.054414555 -0.027571099 0.016433958 -0.08654178
0.04479541 0.062285837 -0.016390026 -0.021244694 -0.09385995 0.0206853 0.049047425 -0.08519913

fc2.bias f4 [84]
00000000: 6eef 86bb a7a5 25bd 3504 c4bd 214e 943d
00000010: 368d e53c 918c 053d 000c abbd ca35 89bd
00000020: 8eaf a3bd 409c b5bc 867e 593c d4e6 c03d
00000030: a1db f9bc 82ed 073d d8ff c53d 4947 bd3d
00000040: c2f8 97bd 6d35 9e3d 2699 a73d ea5c abbd
00000050: 0383 8ebd 4ebe 563c 3467 bc3c 599d b23d
00000060: ae8b 2f3d 14cc c43c 7731 38bd d8d9 8cbd
00000070: c36f e33d b32b acbb 9a52 893d e682 69bd
00000080: 426e dc3d 4bd8 313c edb7 823c cc87 81bd
00000090: bacf 5a3d e250 f8bc 0ca3 c5bc c8a3 fdbc
000000a0: b053 24bd c8ae ed3c 46ee 583d d6a5 73bd
000000b0: 7100 4d3c 7afa 013d dd6d f63c 7ee5 a83c
000000c0: a32e 3ebd edf3 38bd 4ae3 2cbd f3a8 85bc
000000d0: 1b22 9cbd 0365 5c3c c563 f83c dea0 833d
000000e0: c243 993d 39a9 d93d 79e5 0a3d c2ef 18bd
000000f0: 97a4 283d bde8 bdbd e93a 08bd 59f0 0e3d
00000100: 86fe cbbc dcf0 9d3d c12e 483c 6d44 533d
00000110: 1bbe ca3c 775d 86bd 5880 443c 2f53 febc
00000120: ca66 e53b 8f34 82bd 92c3 d73d 87ac 383d
00000130: faca a3bd 382b 8f3d 39ab 6cbc 38c2 e83d
00000140: 12b2 cb3d d6e0 183d 3814 923c a666 fc3c
-0.0041178977 -0.04044118 -0.09571115 0.072414644 0.028021436 0.032604758 -0.08351898 -0.066997126
-0.07992469 -0.022169232 0.013274794 0.09419027 -0.030500235 0.03318549 0.09667939 0.09242112
-0.07420494 0.07725034 0.081835076 -0.08367331 -0.06958582 0.013106896 0.02299843 0.08721418
0.04285782 0.024023093 -0.04496905 -0.06877488 0.11105301 -0.005254233 0.06705208 -0.0570096
0.107632175 0.010854791 0.015956843 -0.06324729 0.05342076 -0.030312005 -0.024125598 -0.030961886
-0.040118873 0.029014006 0.05296161 -0.059484325 0.012512312 0.031733014 0.030081684 0.020617243
-0.046431195 -0.0451545 -0.042208947 -0.016315913 -0.076236926 0.013451817 0.030321011 0.06427167
0.07483627 0.1062798 0.03391025 -0.037338026 0.04117259 -0.09272907 -0.033259306 0.034897182
-0.02490164 0.07711956 0.012218178 0.051578928 0.024748852 -0.06560796 0.01199349 -0.031045524
0.007000779 -0.06357681 0.10535349 0.04508641 -0.07997699 0.06990665 -0.01444512 0.11365169
0.099460736 0.037323795 0.017831907 0.030810665

fc3.weight f4 [10, 84]
00000000: 1d7a 343b d9d0 d23b 258b bd3c b515 f4bb
00000010: e126 64bb c71a c83d e1ab 9a3d 8075 c8bc
00000020: 90b2 083c 62d0 91bd 86b6 bebd a065 e2bb
00000030: 6c7e 0d3e 4c2f 673d 011a cf3d 6f5a d83d
00000040: ce00 e5bd 3887 8ebd 2e9d 0c3e 8ac2 1ebd
00000050: a859 32bd 0ce8 823c a0e5 d03a 93b1 b9bd
00000060: edc3 593d 2eeb adbd ee58 e83d e77a 813d
00000070: 176c 1bbe 4c04 c83d 488c edbd 0834 6d3c
00000080: 8479 fcbd 27bf 39be 60ad ffbb cfd9 a33d
00000090: 751f 99bd ff83 4f3d 2af4 f6bd e256 2a3d
000000a0: 9a26 b43d 83da 013c 8ac9 d33d 5313 0dbe
000000b0: 9cd0 25bd d588 76bd a994 97bd e8d6 a23b
000000c0: a03c b0bd 0a60 efbd ba0d cfbc d7f4 00be
000000d0: 6c6d c0bd 4baf e1bd dd6b eabd 54a0 cc3d
000000e0: 1dc8 1d3e d09b a2bb 28ae e93d a466 2bbd
000000f0: 869a 533d 596b 253c 9bd4 c53d 8f47 b83d
00000100: 5867 443d b987 cbbd 7383 bd3c 70b2 3ebd
00000110: e4b6 943d 7bda 1f3d 56e5 97bd 37b3 cbbd
00000120: 147a d03d ad1c 72bd 1851 a23d b0fa b9bd
00000130: e63e 163c 94ce 4fbd 2cc7 18bd ea7f 933c
00000140: d7ec 76bd 11a3 e43d 0272 0bbe 3194 f5bd
00000150: 2c36 703c a4b1 9e3d bf62 323d a7fb 01be
00000160: c6af b3bd 5661 19be 6735 c73d 7cca 17be
00000170: 4398 b83d 7541 b93d 822f e33d e2f3 35be
00000180: f7d9 303d 016e e8bb f061 813d afdc 61bd
00000190: 9c2d ecbd 37d1 043e 3c66 793c 0d75 b7bd
000001a0: f4e3 eabd 6ba0 9bbd d297 72bc f427 7fbc
000001b0: 0aa0 c83d bc8c 583d e8c5 353d e5c9 263c
000001c0: 2c3e 533d 6d0e 9dbc d688 5d3d a63c d0bd
000001d0: 582a b73d 1b6c 093e 3ce7 d13d ff0b 1bbe
000001e0: aabf 653d aa4f 9c3d 288c 0b3e fc8b 96bc
000001f0: 10d4 f4bc 6be5 84bd ff63 19be eb85 d13b
00000200: 23f8 90bd 90b9 23be 01b2 3b3d c756 cdbd
00000210: 1532 9bbd 0426 ea3c b305 16bc 79ad 1c3e
00000220: 53e2 e4ba aa12 143e be1c 83bd 5f28 083e
00000230: eedf f53d 2c53 4e3d 3e99 853b 76f5 3abd
00000240: 5421 a0bd a125 f6bd d2ad a0bd 2ab5 1dbe
00000250: a4e5 11be 17bd 523d e3cd 303e 40b2 f5bd
00000260: 32e0 fdbd a4bd d8bd 9cd2 8c3d 692e dcbd
00000270: 5160 e83d 71ed bd3d 525a 513a 3bab f13d
00000280: 21af 8b3e e897 763d 5bc0 353b e476 0cbe
00000290: 5f30 f3bd 6dbd a5bd a775 d73d 57ab dd3c
000002a0: e7ba e2bd 8860 c33d 2399 af3c ecb6 693d
000002b0: b38b c4bc dbdd bd3d b26c 163d fb2d d33c
000002c0: e30b 57bd 8b7b 82bc 0d03 ad3d df97 8bbd
000002d0: 3249 253d 0278 96bb a3bc fa3c fc84 db3d
000002e0: f7ad b4bd 1f68 bebd bb4c c03d 1c74 cfbd
000002f0: d3e6 aebd bc9d 3fbd 7970 a73d 0373 b63c
00000300: 0d4c f3bd 0d3c 1ebe 49b1 7abd 131e b7bc
00000310: d549 a63c 9ad8 003d 911c e3bc 55f3 a8bc
00000320: 842f 18be ec7c ecbd accc 15bd 8581 3c3d
00000330: 63b6 0cbd 2cd9 1a3e 9977 c33d 0084 193e
00000340: 69a7 4a3d 0c26 9abd 8d42 8c3d 167e 323d
00000350: a3be 183d b599 863b 2c04 813d 89e4 9ebd
00000360: 49bb 843d baa7 54bb bf72 4abd 69ee 973d
00000370: d64d 903c 31f0 85bd b09a b3bb c820 553d
00000380: d672 213d 0169 3cbe 8e50 9b3c 1ea9 67bd
00000390: c1f4 ff3c 6f2e 703d b0c0 e23b f4aa da3c
000003a0: eb59 853d bcb3 4fbd f72d d3bd 7f4a 923c
000003b0: 2476 1bbd 5888 60bc d424 0c3d 975e 1cbd
000003c0: 5e21 bcbd 3f54 f43d c668 b5bd 2cff e53d
000003d0: 01c5 02be bf26 df3d 5dea c6bd 8dc9 25be
000003e0: 4117 1b3d e90b bcbc 83d9 dc3d 611a e5bd
000003f0: 23cd 063e 1f27 9dbd 4b42 b13c c520 f13d
0.0027538606 0.006433588 0.023137638 -0.0074488767 -0.0034813213 0.097707324 0.075523145 -0.02447009
0.008343354 -0.07119824 -0.09312157 -0.0069090873 0.13817757 0.05644159 0.10112382 0.10564124
-0.11181794 -0.06959385 0.13731834 -0.038759746 -0.043542534 0.01597979 0.0015937574 -0.09067073
0.053165365 -0.084921226 0.11345087 0.0632227 -0.15177952 0.097664446 -0.11599022 0.014477737
-0.12327865 -0.18139325 -0.0078026503 0.08000528 -0.07476703 0.05066299 -0.12058289 0.041586764
0.08796425 0.007925632 0.10341175 -0.13776903 -0.04048215 -0.060189087 -0.074014015 0.0049694665
-0.08605313 -0.1168824 -0.0252751 -0.12593399 -0.093958706 -0.110197626 -0.114463545 0.09991518
0.15408368 -0.004962422 0.11410171 -0.041845933 0.051661037 0.010096394 0.09659692 0.08998024
0.04795012 -0.099379964 0.023133969 -0.04655689 0.07261446 0.03902672 -0.07416789 -0.09946292
0.101795346 -0.05910938 0.07925624 -0.09081018 0.00917027 -0.050734118 -0.03729932 0.01800533
-0.06028446 0.11163915 -0.1361771 -0.11991156 0.014661353 0.07748726 0.043551203 -0.12693654
-0.087737605 -0.14978537 0.097269826 -0.14823335 0.090134166 0.09045688 0.11093046 -0.17768815
0.043176617 -0.0070931916 0.06317508 -0.0551421 -0.11532137 0.12970434 0.0152221285 -0.089578725
-0.1146926 -0.07598957 -0.014806705 -0.01557349 0.0979615 0.05286859 0.04437819 0.010179971
0.051572964 -0.019171918 0.054085575 -0.10167818 0.08943623 0.13420145 0.102491826 -0.15141295
0.05609099 0.07632382 0.13627684 -0.018377297 -0.029886276 -0.064890705 -0.14979552 0.006394138
-0.07078578 -0.15988755 0.045824055 -0.10026317 -0.07577912 0.02858258 -0.009156632 0.1530055
-0.0017462469 0.14460245 -0.064019665 0.1329665 0.12005602 0.050372288 0.004077106 -0.045644246
-0.07818857 -0.12018896 -0.078456536 -0.1540114 -0.14247757 0.05144986 0.1726604 -0.11996889
-0.123962775 -0.10583046 0.06876108 -0.107510395 0.11346496 0.09273804 0.0007986176 0.11800238
0.2728205 0.060203463 0.002773306 -0.13717228 -0.118744604 -0.08092771 0.10520487 0.02705924
-0.11070805 0.09539896 0.021435326 0.057059214 -0.023992395 0.09270831 0.036724754 0.025778761
-0.05250157 -0.01592805 0.084478475 -0.068160765 0.040353008 -0.0045919428 0.030607527 0.10718724
-0.08822244 -0.09297203 0.09389635 -0.10129568 -0.0854012 -0.046781287 0.08175749 0.022271639
-0.1187974 -0.15452595 -0.06120423 -0.022353208 0.020298878 0.031456567 -0.027723582 -0.020623842
-0.14861876 -0.115472645 -0.036572143 0.046021957 -0.034353625 0.15121907 0.09544296 0.1499176
0.04947606 -0.07526788 0.06848631 0.043577276 0.03729118 0.004107679 0.06299624 -0.07758433
0.06481034 -0.0032448606 -0.049425837 0.0741852 0.01761524 -0.065399535 -0.0054810867 0.052033216
0.039416157 -0.18399431 0.01895931 -0.056557767 0.031244637 0.058638033 0.006919943 0.026692845
0.06511291 -0.050708517 -0.103115015 0.017857788 -0.037954465 -0.013704382 0.03421481 -0.038176145
-0.09186052 0.11930131 -0.088578746 0.11230311 -0.12770464 0.10896062 -0.0971267 -0.16190167
0.037863974 -0.022954898 0.107836746 -0.11186672 0.13164191 -0.076734774 0.021638056 0.117738284

fc3.bias f4 [10]
00000000: 1adc bfbc 8153 c33d fd92 62bd 8619 8cbd
00000010: a892 c03d e629 943b 27f0 5cbd 2b28 793c
00000020: d4a9 ad3d 4862 9ebc
-0.023420382 0.095374115 -0.05531596 -0.06840806 0.094029725 0.0045215962 -0.053939965 0.015207331
0.08479658 -0.019333974
